…
8-x86_64-linux-gnu.so -fopenmp
WARN: config contains unexpected key: fall_on_turn_over
this will be ignored
/usr/local/lib/python3.8/dist-packages/torch/cuda/__init__.py:107: UserWarning: CUDA initialization: Unexpected error from cudaGetDeviceCount(). Did you run some cuda functions before calling NumCudaDevices() that might have already set an error? Error 34: CUDA driver is a stub library (Triggered internally at ../c10/cuda/CUDAFunctions.cpp:109.)
  return torch._C._cuda_getDeviceCount() > 0
cuda -
Running on CPU ...
Creating a CHAC agent

Hierarchy Level 0 with time scale 27
Actor(
  (fc1): Linear(in_features=33, out_features=256, bias=True)
  (fc2): Linear(in_features=256, out_features=256, bias=True)
  (fc3): Linear(in_features=256, out_features=256, bias=True)
  (fc4): Linear(in_features=256, out_features=8, bias=True)
)
Critic(
  (fc1): Linear(in_features=41, out_features=256, bias=True)
  (fc2): Linear(in_features=256, out_features=256, bias=True)
  (fc3): Linear(in_features=256, out_features=256, bias=True)
  (fc4): Linear(in_features=256, out_features=1, bias=True)
  (mse_loss): MSELoss()
)
ForwardModel(
  (mlp): Sequential(
    (0): Linear(in_features=37, out_features=256, bias=True)
    (1): ReLU()
    (2): Linear(in_features=256, out_features=256, bias=True)
    (3): ReLU()
    (4): Linear(in_features=256, out_features=256, bias=True)
    (5): ReLU()
    (6): Linear(in_features=256, out_features=29, bias=True)
    (7): Identity()
  )
  (mse_loss): MSELoss()
)

Hierarchy Level 1 with time scale 27
Actor(
  (fc1): Linear(in_features=31, out_features=256, bias=True)
  (fc2): Linear(in_features=256, out_features=256, bias=True)
  (fc3): Linear(in_features=256, out_features=256, bias=True)
  (fc4): Linear(in_features=256, out_features=4, bias=True)
)
Critic(
  (fc1): Linear(in_features=35, out_features=256, bias=True)
  (fc2): Linear(in_features=256, out_features=256, bias=True)
  (fc3): Linear(in_features=256, out_features=256, bias=True)
  (fc4): Linear(in_features=256, out_features=1, bias=True)
  (mse_loss): MSELoss()
)
ForwardModel(
  (mlp): Sequential(
    (0): Linear(in_features=33, out_features=256, bias=True)
    (1): ReLU()
    (2): Linear(in_features=256, out_features=256, bias=True)
    (3): ReLU()
    (4): Linear(in_features=256, out_features=256, bias=True)
    (5): ReLU()
    (6): Linear(in_features=256, out_features=29, bias=True)
    (7): Identity()
  )
  (mse_loss): MSELoss()
)
Difficulty: 0.0, Success Rate: 0.64
Difficulty: 0.05, Success Rate: 0.04
Difficulty: 0.1, Success Rate: 0.0
Difficulty: 0.15000000000000002, Success Rate: 0.0
Difficulty: 0.2, Success Rate: 0.0
Difficulty: 0.25, Success Rate: 0.0
Difficulty: 0.3, Success Rate: 0.0
Difficulty: 0.35, Success Rate: 0.0
Difficulty: 0.39999999999999997, Success Rate: 0.0
…
