…
ux-x86_64-cpython-38/usr/local/lib/python3.8/dist-packages/mujoco_py/gl/osmesashim.o -L/root/.mujoco/mujoco210/bin -L/usr/lib -Wl,--enable-new-dtags,-R/root/.mujoco/mujoco210/bin -lmujoco210 -lglewosmesa -lOSMesa -lGL -o /usr/local/lib/python3.8/dist-packages/mujoco_py/generated/_pyxbld_2.1.2.14_38_linuxcpuextensionbuilder/lib.linux-x86_64-cpython-38/mujoco_py/cymj.cpython-38-x86_64-linux-gnu.so -fopenmp
WARN: config contains unexpected key: fall_on_turn_over
this will be ignored
cuda +
Running on GPU: 0 NVIDIA RTX A4000
Creating a CHAC agent

Hierarchy Level 0 with time scale 27
Actor(
  (fc1): Linear(in_features=474, out_features=256, bias=True)
  (fc2): Linear(in_features=256, out_features=256, bias=True)
  (fc3): Linear(in_features=256, out_features=256, bias=True)
  (fc4): Linear(in_features=256, out_features=8, bias=True)
)
Critic(
  (fc1): Linear(in_features=482, out_features=256, bias=True)
  (fc2): Linear(in_features=256, out_features=256, bias=True)
  (fc3): Linear(in_features=256, out_features=256, bias=True)
  (fc4): Linear(in_features=256, out_features=1, bias=True)
  (mse_loss): MSELoss()
)
ForwardModel(
  (mlp): Sequential(
    (0): Linear(in_features=478, out_features=256, bias=True)
    (1): ReLU()
    (2): Linear(in_features=256, out_features=256, bias=True)
    (3): ReLU()
    (4): Linear(in_features=256, out_features=256, bias=True)
    (5): ReLU()
    (6): Linear(in_features=256, out_features=470, bias=True)
    (7): Identity()
  )
  (mse_loss): MSELoss()
)

Hierarchy Level 1 with time scale 27
Actor(
  (fc1): Linear(in_features=472, out_features=256, bias=True)
  (fc2): Linear(in_features=256, out_features=256, bias=True)
  (fc3): Linear(in_features=256, out_features=256, bias=True)
  (fc4): Linear(in_features=256, out_features=4, bias=True)
)
Critic(
  (fc1): Linear(in_features=476, out_features=256, bias=True)
  (fc2): Linear(in_features=256, out_features=256, bias=True)
  (fc3): Linear(in_features=256, out_features=256, bias=True)
  (fc4): Linear(in_features=256, out_features=1, bias=True)
  (mse_loss): MSELoss()
)
ForwardModel(
  (mlp): Sequential(
    (0): Linear(in_features=474, out_features=256, bias=True)
    (1): ReLU()
    (2): Linear(in_features=256, out_features=256, bias=True)
    (3): ReLU()
    (4): Linear(in_features=256, out_features=256, bias=True)
    (5): ReLU()
    (6): Linear(in_features=256, out_features=470, bias=True)
    (7): Identity()
  )
  (mse_loss): MSELoss()
)
Difficulty: 0.0, Success Rate: 0.16
Difficulty: 0.05, Success Rate: 0.0
Difficulty: 0.1, Success Rate: 0.0
Difficulty: 0.15000000000000002, Success Rate: 0.0
Difficulty: 0.2, Success Rate: 0.0
Difficulty: 0.25, Success Rate: 0.0
Difficulty: 0.3, Success Rate: 0.0
Difficulty: 0.35, Success Rate: 0.0
Difficulty: 0.39999999999999997, Success Rate: 0.0
…
